fare_forecasting_model.pth (torch, 245587 bytes, 11 tensors)

pickup_embedding.weight f4 [262, 8]
1.0040891 -2.580187 -2.838387 4.1623416 -2.2739656 3.1016724 -5.0552735 -2.1123598
0.3501049 1.2675182 -3.3284085 -0.9894988 -2.8514383 -1.8909332 -0.7874266 -0.40855289
-0.10832132 -4.8258324 0.18618888 -3.2320771 -6.0762253 1.6367903 -1.2984031 4.751538
1.2309761 -0.70408976 1.204413 1.0381572 -0.5517625 2.2407906 1.317834 -1.557489
0.8696063 0.11404417 0.6546887 0.6175338 2.2636125 0.94620734 -0.6927711 0.0032429986
-1.5529422 3.0670462 1.8266394 -4.9166393 -1.9613732 -2.280243 2.8381035 0.31187794
6.0595775 -2.5761654 -2.9548533 -1.4631431 -0.56550133 4.35247 2.6064389 -1.3418385
0.025460023 -1.3279772 -2.1285722 0.28470674 -0.5332836 0.8247562 0.67112726 -1.7852545
-3.454112 -0.29679766 -3.886119 0.716638 -3.377046 3.954904 -1.3057778 -0.023464011
-4.464365 -3.8123772 -2.6743073 -2.1266878 -2.1749578 6.2850037 -1.3313087 -0.24160053
-2.5258338 -3.7618113 -4.4229136 2.071123 -1.5899874 2.0867364 4.086521 0.834319
2.076383 -2.524188 0.18370865 1.2612082 -1.3648088 2.386541 2.4238818 -0.31646824
1.9701527 -2.2642193 -0.25894225 1.7918758 -1.4616835 1.9097781 1.8406692 0.27947265
1.0187246 -2.7914827 -2.771015 -3.1849427 -4.6100497 -4.2189975 -1.4720423 0.30164528
-2.7183912 -1.5358778 -4.321076 0.38960832 -4.775156 2.4530563 -3.3048472 1.360765
-0.6375754 -1.2681212 -0.8590365 1.0913342 -3.5267706 5.8863826 -4.1234035 -2.0083644
0.296585 -2.1248684 -3.2322776 0.62342215 -4.366227 2.0693927 -1.586551 -0.15417999
-4.63565 -2.4350288 -2.7763603 -2.261043 -3.5930524 2.3841894 -0.4299495 -0.9184941
-1.234259 -3.2609272 -4.2109184 -0.9950519 -2.298763 3.7193604 -2.1879761 -0.814894
-4.884313 -3.103711 -1.3254079 -2.8425062 -3.0176115 1.9820311 -1.5796393 -1.3020953
-1.5755256 -1.2017971 -3.2758307 0.8692642 -5.4673905 1.1562647 -3.2005503 -1.0522381
-2.1377616 -3.1380513 -3.1871023 -1.8479826 -2.8568363 2.847537 -3.6171284 -1.650761
-1.2762527 -1.577083 2.8923419 5.2459655 1.2021618 -0.9638348 -0.8710792 0.13930656
-0.74154645 -2.3449266 -3.5150928 -0.32351673 0.28654155 0.067243926 3.3970652 -0.75338936
1.3362396 -2.1643498 -2.8006415 1.0417702 -1.0453998 4.0463653 1.3041488 -1.4223176
-1.74436 -1.0938503 -4.2431583 -0.23764688 -3.117274 2.1862123 -1.3128306 -1.884262
0.17640951 1.0183017 0.26254323 -1.6054192 0.1998605 0.84360933 -0.97005284 1.3766702
-5.0406137 -0.28888845 -4.742417 -0.6488631 -1.6960257 4.3364654 -4.111026 -0.20413813
0.036845747 1.3298026 -3.837767 -1.7634158 -4.6227403 1.728327 0.2767375 2.3499727
-1.9538397 -1.6563843 -2.054634 -0.5940767 -1.386272 1.7148243 -1.4215405 -2.374109
-4.482169 -4.7305164 -4.549917 -2.31898 0.3621279 1.3230383 -1.720694 -0.31660128
-2.5983384 -2.491087 -0.6479377 -2.5981753 -4.6384473 2.7049558 -3.3847787 -2.5757525
00000000: fe85 803f c921 25c0 22a8 35c0 e731 8540
00000010: a788 11c0 cd81 4640 cdc4 a1c0 e730 07c0
00000020: f340 b33e 093e a23f a504 55c0 cb4f 7dbf
00000030: f77d 36c0 190a f2bf ca94 49bf d82d d1be
00000040: 91d7 ddbd 386d 9ac0 4ca8 3e3e 5ada 4ec0
00000050: 7070 c2c0 5882 d13f 1332 a6bf 990c 9840
00000060: a090 9d3f 3a3f 34bf 352a 9a3f 56e2 843f
00000070: 4f40 0dbf 1d69 0f40 c9ae a83f cd5b c7bf
00000080: 859e 5e3f fd8f e93d ae99 273f b216 1e3f
00000090: 07df 1040 a53a 723f 7259 31bf 7d88 543b
000000a0: cfc6 c6bf 7c4a 4440 52cf e93f 1c55 9dc0
000000b0: 470e fbbf 80ef 11c0 7da3 3540 77ae 9f3e
000000c0: 0fe8 c140 e5df 24c0 511c 3dc0 4648 bbbf
000000d0: b2c4 10bf 6f47 8b40 e5cf 2640 5dc1 abbf
000000e0: 8a91 d03c 28fb a9bf 873a 08c0 15c5 913e
000000f0: 4685 08bf 3923 533f ffce 2b3f 3883 e4bf
00000100: 2c10 5dc0 ddf5 97be 2cb6 78c0 9775 373f
00000110: 8621 58c0 261d 7d40 ba23 a7bf 9937 c0bc
00000120: 14dc 8ec0 fdfd 73c0 da27 2bc0 a71b 08c0
00000130: 8232 0bc0 c01e c940 5368 aabf 2166 77be
00000140: 43a7 21c0 84c1 70c0 8288 8dc0 478d 0440
00000150: b584 cbbf 178d 0540 c8c4 8240 ee95 553f
00000160: 76e3 0440 4c8c 21c0 1f1e 3c3e 456f a13f
00000170: 0eb2 aebf 16bd 1840 e120 1b40 2008 a2be
00000180: f72d fc3f f8e8 10c0 1494 84be 305c e53f
00000190: 7218 bbbf 9c73 f43f 0c9b eb3f 0a17 8f3e
000001a0: 9165 823f a7a7 32c0 4f58 31c0 1ad6 4bc0
000001b0: 8785 93c0 0702 87c0 e26b bcbf 4071 9a3e
000001c0: 1ffa 2dc0 a597 c4bf 4146 8ac0 be7a c73e
000001d0: 14ce 98c0 e0fe 1c40 9e82 53c0 8c2d ae3f
000001e0: 2438 23bf cc51 a2bf d1e9 5bbf d7b0 8b3f
000001f0: 9cb6 61c0 3f5d bc40 ecf2 83c0 0b89 00c0
00000200: fdd9 973e d8fd 07c0 a3dd 4ec0 9898 1f3f
00000210: 22b8 8bc0 ee70 0440 1a14 cbbf 5ce1 1dbe
00000220: 3f57 94c0 83d7 1bc0 e3af 31c0 eeb4 10c0
00000230: 92f4 65c0 8f96 1840 5722 dcbe 6e22 6bbf
00000240: 33fc 9dbf 08b3 50c0 d8bf 86c0 b9bb 7ebf
00000250: ef1e 13c0 000a 6e40 cd07 0cc0 e59c 50bf
00000260: 4b4c 9cc0 33a3 46c0 f7a6 a9bf 9feb 35c0
00000270: 8c20 41c0 32b3 fd3f 9f31 cabf 0fab a6bf
00000280: d3aa c9bf 7dd4 99bf 36a7 51c0 1988 5e3f
00000290: ddf4 aec0 7b00 943f d1d5 4cc0 bdaf 86bf
000002a0: 16d1 08c0 d5d5 48c0 7cf9 4bc0 b28a ecbf
000002b0: 68d6 36c0 0c3e 3640 087f 67c0 234c d3bf
000002c0: 405c a3bf dbdd c9bf 211c 3940 f3de a740
000002d0: 70e0 993f e1bd 76bf 0cff 5ebf 61a6 0e3e
000002e0: fdd5 3dbf 4713 16c0 48f7 60c0 fca3 a5be
000002f0: 93b5 923e 2fb7 893d 8469 5940 20de 40bf
00000300: e609 ab3f b584 0ac0 b63d 33c0 ba58 853f
00000310: a9cf 85bf d37b 8140 59ee a63f 810e b6bf
00000320: 3047 dfbf 4903 8cbf f4c7 87c0 b459 73be
00000330: 6b81 47c0 e7ea 0b40 d50a a8bf 7f2f f1bf
00000340: b2a4 343e b657 823f 116c 863e 607e cdbf
00000350: 3ba8 4c3e c8f6 573f 6255 78bf bb36 b03f
00000360: b54c a1c0 30e9 93be e1c1 97c0 e41b 26bf
00000370: 5f17 d9bf 53c4 8a40 868d 83c0 9609 51be
00000380: 91eb 163d f936 aa3f f99d 75c0 9cb7 e1bf
00000390: 7ded 93c0 d239 dd3f 8ab0 8d3e f465 1640
000003a0: 6b17 fabf 6704 d4bf 207f 03c0 6915 18bf
000003b0: 5c71 b1bf 5d7f db3f 0af5 b5bf 67f1 17c0
000003c0: ee6d 8fc0 6460 97c0 ec98 91c0 2b6a 14c0
000003d0: d468 b93e 5259 a93f b33f dcbf 9019 a2be
000003e0: 2d4b 26c0 f86d 1fc0 3fdf 25bf 8148 26c0
000003f0: 296e 94c0 ff1d 2d40 37a0 58c0 21d9 24c0

dropoff_embedding.weight f4 [262, 8]
2.625806 0.1746838 -1.3066393 -4.998398 2.9083493 1.2858814 1.8612124 -2.877055
1.428756 1.5499934 0.46439385 2.8794696 -0.39419296 -1.5030437 -0.1668761 0.5913395
-3.2563276 3.8678734 -1.0787777 -5.3869095 6.071663 0.018763982 2.9116182 2.2043762
-2.9324145 2.9504292 -2.1407485 -1.2300129 0.7783439 2.0969555 -0.91584593 2.783037
0.0097199455 -0.5914726 -1.2910787 -0.17459863 -0.6034065 -1.9210043 0.16431431 -0.7791087
-2.1103415 3.4741874 2.4102998 -2.640902 3.5527308 1.2778583 1.3545458 2.8699512
-0.34367862 0.90341794 1.1260953 -5.2157054 -1.0545954 3.011448 -1.7254679 -0.3927489
-2.2606945 0.92899936 2.0078893 -5.1639223 -0.6020389 1.5744644 -0.5477807 -0.6934318
4.995759 3.3844395 0.3813767 -5.7305374 0.8958448 1.060148 2.2986968 4.0679007
-2.660242 1.1142428 5.41763 -10.190142 9.079046 -0.458683 0.19701956 8.32356
1.1876736 1.4671152 3.9160228 -1.4991847 1.4636878 2.0122805 0.045962438 3.8483584
-2.0318592 0.62460756 -1.1202272 -2.1424189 1.0532782 1.389268 0.85547894 6.5820646
-1.437128 1.5701858 -1.0957881 -1.5103787 -0.26392838 0.85910666 1.9222848 5.900357
2.204803 2.9445772 2.9489858 -4.829902 1.4241449 2.586841 -1.1995416 0.74025124
1.4180684 -2.6366057 -0.4005571 -6.716018 4.3552628 -0.62769306 3.3529265 7.782784
3.0544536 0.25319484 0.6641863 -6.984524 0.28665918 0.5650021 3.4635265 5.122425
-0.26831722 2.7929723 0.9291831 -2.8843987 1.1533767 3.5111372 1.1773548 1.5348997
1.4030969 1.5305744 1.1619283 -7.719284 6.6473827 -2.2672503 -1.7141051 4.3967934
3.9836085 -1.3082023 1.3262138 -9.5277815 2.6396017 1.100083 -3.3865912 4.2328157
-1.4598732 2.3171954 1.4087402 -5.725312 5.629943 -0.9039409 -1.0296667 3.5240552
3.777731 1.2717581 2.869227 -7.8971887 5.3720336 3.9318473 0.3975198 3.0517352
3.327056 1.1209791 2.4481034 -6.140368 3.7010238 0.97704816 0.8038969 3.539767
-1.1170464 -0.00446909 -2.78115 0.46117082 -1.0779824 0.41203576 -0.6676023 1.5118264
0.4571813 2.5090744 1.925875 -3.0347908 -1.4393067 -0.14577512 -2.2151113 3.660574
0.04721717 1.590394 -0.12567109 -3.3779314 1.5985276 2.6572578 0.18411182 2.9038377
1.5958049 1.2831285 0.9969224 -5.4788694 2.4371517 0.9403932 1.4060359 1.5967458
-0.6456378 2.5104315 -0.77358747 -0.45740047 1.4945172 1.1938748 0.6595908 1.4708391
1.669237 -3.2412941 2.9418921 -8.519063 6.7102103 0.88463634 -0.6421247 9.808948
2.1895115 -0.6413588 2.6050906 -6.25788 4.097443 1.0129583 3.2256994 3.4188511
-3.21792 1.3212658 -1.0544336 -2.7680686 -0.013797734 -2.1737497 -2.2187939 0.34962034
-3.5038793 0.5316704 1.2421292 -3.7029483 2.929833 -0.75625265 0.17144057 1.3938273
-1.5715483 2.349016 -0.15960535 -6.3265495 6.5791264 -0.24905677 -1.3611072 3.9860044
00000000: 350d 2840 4fe0 323e f53f a7bf e0f2 9fc0
00000010: 6522 3a40 c397 a43f 353c ee3f ab21 38c0
00000020: 7ae1 b63f 2f66 c63f 08c5 ed3e 3b49 3840
00000030: a9d3 c9be bc63 c0bf 91e1 2abe 0762 173f
00000040: ac67 50c0 3d8b 7740 6315 8abf 9061 acc0
00000050: 104b c240 ecb6 993c f457 3a40 8014 0d40
00000060: aeac 3bc0 d5d3 3c40 0602 09c0 1071 9dbf
00000070: 8c41 473f 8534 0640 e174 6abf 471d 3240
00000080: 6840 1f3c c06a 17bf 1142 a5bf fcc9 32be
00000090: d978 1abf 78e3 f5bf 0342 283e ab73 47bf
000000a0: d60f 07c0 1659 5e40 5a42 1a40 8a04 29c0
000000b0: f15f 6340 dc90 a33f c261 ad3f 48ad 3740
000000c0: a5f6 afbe 6646 673f e423 903f 0fe7 a6c0
000000d0: fbfc 86bf 90bb 4040 22dc dcbf 6216 c9be
000000e0: 38af 10c0 e7d2 6d3f 4281 0040 da3e a5c0
000000f0: 391f 1abf 0d88 c93f 5b3b 0cbf bf84 31bf
00000100: 42dd 9f40 a89a 5840 cf43 c33e 9060 b7c0
00000110: 1656 653f eeb2 873f d91d 1340 3e2c 8240
00000120: 6841 2ac0 829f 8e3f 3a5d ad40 d20a 23c1
00000130: c643 1141 80d8 eabe 7fbf 493e 4d2d 0541
00000140: b005 983f 6eca bb3f 1ea0 7a40 49e5 bfbf
00000150: 1f5a bb3f 34c9 0040 1c43 3c3d 814b 7640
00000160: fb09 02c0 48e6 1f3f 9b63 8fbf 641d 09c0
00000170: d2d1 863f 89d3 b13f ab00 5b3f 46a0 d240
00000180: cff3 b7bf d9fb c83f c942 8cbf 1754 c1bf
00000190: 9f21 87be 6aee 5b3f 6e0d f63f b9cf bc40
000001a0: 7e1b 0d40 f473 3c40 2fbc 3c40 8f8e 9ac0
000001b0: 614a b63f ce8e 2540 948a 99bf 1b81 3d3f
000001c0: 4483 b53f 26be 28c0 d215 cdbe 9fe9 d6c0
000001d0: 505e 8b40 7eb0 20bf 5996 5640 910c f940
000001e0: 2b7c 4340 c1a2 813e 1d08 2a3f 3881 dfc0
000001f0: fec4 923e faa3 103f 6baa 5d40 e8ea a340
00000200: e060 89be 0fc0 3240 f2de 6d3f fd99 38c0
00000210: d9a1 933f 79b6 6040 90b3 963f 9877 c43f
00000220: ae98 b33f dde9 c33f 11ba 943f 6004 f7c0
00000230: 5cb7 d440 a11a 11c0 cc67 dbbf 88b2 8c40
00000240: 71f3 7e40 2c73 a7bf 60c1 a93f cb71 18c1
00000250: 3cef 2840 85cf 8c3f e9bd 58c0 3a73 8740
00000260: 20dd babf ee4c 1440 9951 b43f c235 b7c0
00000270: 7e28 b440 ac68 67bf 1ecc 83bf 1f8a 6140
00000280: 58c6 7140 f8c8 a23f 6aa1 3740 c5b5 fcc0
00000290: b3e7 ab40 63a3 7b40 b787 cb3e a14f 4340
000002a0: 7cee 5440 3e7c 8f3f baad 1c40 e57d c4c0
000002b0: 93dd 6c40 d41f 7a3f 30cc 4d3f 8b8b 6240
000002c0: 60fb 8ebf 7271 92bb 5dfe 31c0 951e ec3e
000002d0: 54fb 89bf 5af6 d23e fce7 2abf 8783 c13f
000002e0: ab13 ea3e ad94 2040 1283 f63f 033a 42c0
000002f0: 343b b8bf 1346 15be 62c4 0dc0 d846 6a40
00000300: cb66 413d 0892 cb3f ecaf 00be 0730 58c0
00000310: 8d9c cc3f 8310 2a40 cf87 3c3e 7ad8 3940
00000320: 5643 cc3f 8e3d a43f 4e36 7f3f e652 afc0
00000330: 4bfa 1b40 9cbd 703f fcf8 b33f 2b62 cc3f
00000340: 8548 25bf e9aa 2040 d409 46bf 6530 eabe
00000350: 574c bf3f e4d0 983f f1da 283f 7544 bc3f
00000360: 8fa9 d53f 5d71 4fc0 f647 3c40 154e 08c1
00000370: 0bba d640 8777 623f 4962 24bf 73f1 1c41
00000380: f520 0c40 1730 24bf ceb9 2640 8e40 c8c0
00000390: 411e 8340 9ea8 813f dc71 4e40 75ce 5a40
000003a0: 67f2 4dc0 3d1f a93f aef7 86bf 0928 31c0
000003b0: e40f 62bc b71e 0bc0 b800 0ec0 7001 b33e
000003c0: 8f3f 60c0 8d1b 083f 17fe 9e3f 1bfd 6cc0
000003d0: 6282 3b40 c699 41bf 1e8e 2f3e ef68 b23f
000003e0: 7f28 c9bf 4756 1640 966f 23be 1873 cac0
000003f0: 3488 d240 bd08 7fbe c338 aebf b21a 7f40

lstm.weight_ih_l0 f4 [256, 24]
-2.298526 -0.800217 1.4949578 -4.507264 1.1352675 -2.6434984 -0.6853974 0.93786836
0.42890579 -0.32877272 -4.5736694 0.29543883 -1.9670901 2.5222645 2.5904403 0.6698957
3.9105496 0.030188438 0.10401903 -0.12416175 0.28528795 0.08169873 -0.08148147 -0.8279917
-0.15088432 0.21527524 -1.7686957 1.4210318 -0.075634256 -0.55460393 0.82528937 0.32584167
-2.8071146 1.4940321 -3.691652 -0.13488612 -0.94694144 -2.1349175 -1.5868536 1.7155067
0.17045745 0.032835398 -0.061308946 1.6172137 -0.53912663 0.7872316 5.0200925 3.547119
3.163741 -3.505249 2.8290858 1.6307162 1.0025281 1.7928399 2.1156888 -2.709632
-4.1041684 3.4686573 0.92389077 -4.9698715 0.58402574 4.0715156 0.85809004 3.6600559
-2.5745225 -0.30827802 0.5076557 -2.020594 0.43241948 -0.53202915 0.25530267 2.9224427
-0.10987921 0.29009822 -1.163734 2.6872194 0.6187999 -1.5947096 3.3431957 -2.7439225
0.5234905 0.47164547 -2.0221984 1.4348328 0.67656904 1.546695 3.101809 1.8322483
3.5358703 0.23742506 -0.45725945 1.5194308 1.1845613 0.49270856 1.551076 -0.7478631
-0.12207842 0.107243255 0.028644683 0.19192074 0.15989754 -0.41363493 -0.25245658 0.349242
-0.3634576 -0.11242583 0.043952428 0.06494269 -0.23935579 0.30927247 -0.19014123 0.38739824
2.0166056 -0.00045945466 -0.73368 0.3835218 0.5874722 -0.13328642 -1.1286448 -0.031891007
-0.44184977 -0.9361941 2.094699 -0.02110995 -0.48493594 -0.63541573 -0.78970903 -5.6618443
-1.7273829 0.38693827 1.0518062 -1.6293055 2.6167102 0.3577941 0.05848127 -0.908848
0.31310284 -0.004609954 -0.6160304 0.8933208 0.3467024 0.7794022 -4.011766 -6.217536
1.0879412 -0.95895207 0.87932837 3.4460793 0.8149346 -0.6447748 -3.2026155 -0.83276767
-1.9542857 0.32114857 -0.42668465 -4.9016104 -4.4256244 -1.6839627 -2.680918 1.6733046
-0.1518516 -0.040906176 -0.8822417 2.4486797 1.5477709 0.009623844 0.8016641 -1.2280055
1.1787498 -0.9814612 -0.5650361 3.2264671 -3.1860247 -2.348831 -0.20407419 -4.400519
0.16483605 0.16925536 -0.6033516 0.1397648 0.65720963 0.7406127 1.0725542 -0.0035420884
-1.2009912 -0.011698237 -0.20476332 -0.668674 0.24679147 -0.1553191 -1.3583905 -1.3396271
0.24389973 3.395676 -5.2527623 -1.3830278 -7.3408732 2.6345582 -1.4289056 -4.786714
0.44781628 -0.9448343 -2.7533665 1.7436639 -6.39716 1.4940517 -0.551176 2.2117698
2.4051888 -0.011547764 -0.0093007935 -0.87307525 -1.2029855 0.9628641 1.7949522 1.0497257
-0.3119598 0.24605596 0.1264637 -0.11966515 0.70219785 0.5972659 1.9132457 0.004966302
-0.52684754 -0.7210461 -0.29977772 0.49262017 -0.17604813 -0.17549026 0.537109 -0.70046437
0.78335375 -0.1795164 0.91284573 -0.95091605 0.8842087 -1.2876678 7.4814157 -17.470497
-0.5776135 1.1350734 0.4438242 0.019700669 -0.39551467 0.055097274 0.93388766 0.9487184
0.2842189 -0.8179724 -0.47430897 1.1634818 0.08638442 -0.09651145 0.5154233 -0.79941005
00000000: 0d1b 13c0 05db 4cbf c75a bf3f 823b 90c0
00000010: 7250 913f 142f 29c0 3476 2fbf 2418 703f
00000020: 8a99 db3e e654 a8be 805b 92c0 c243 973e
00000030: 9cc9 fbbf c86c 2140 c6c9 2540 497e 2b3f
00000040: 7246 7a40 be4d f73c ee07 d53d 8448 febd
00000050: 4311 923e aa51 a73d c2df a6bd 44f7 53bf
00000060: 6b81 1abe 1d71 5c3e 9f64 e2bf 5fe4 b53f
00000070: 22e6 9abd 86fa 0dbf 2a46 533f b8d4 a63e
00000080: c4a7 33c0 723c bf3f 0744 6cc0 961f 0abe
00000090: c16a 72bf 7da2 08c0 051e cbbf b995 db3f
000000a0: 668c 2e3e 697e 063d 171f 7bbd dc00 cf3f
000000b0: 3404 0abf 0388 493f 99a4 a040 ff03 6340
000000c0: bc7a 4a40 0056 60c0 be0f 3540 4fbb d03f
000000d0: d752 803f c77b e53f 7267 0740 9c6a 2dc0
000000e0: 5955 83c0 7bfe 5d40 1b84 6c3f 3009 9fc0
000000f0: b682 153f db49 8240 caab 5b3f 5b3e 6a40
00000100: fac4 24c0 9ed6 9dbe b9f5 013f 6951 01c0
00000110: 1666 dd3e 1033 08bf 08b7 823e 4d09 3b40
00000120: 5a08 e1bd c187 943e 3cf5 94bf 67fb 2b40
00000130: ac69 1e3f 721f ccbf ebf6 5540 6d9c 2fc0
00000140: 7903 063f 847b f13e b36b 01c0 9aa8 b73f
00000150: a133 2d3f 1afa c53f 0a84 4640 1d87 ea3f
00000160: b34b 6240 8e1f 733e e91d eabe b57c c23f
00000170: b49f 973f 4c44 fc3e a989 c63f f573 3fbf
00000180: 4004 fabd 5aa2 db3d 41a8 ea3c df86 443e
00000190: 2ebc 233e f5c7 d3be fd41 81be d9cf b23e
000001a0: 1d17 babe 833f e6bd 7607 343d ac00 853d
000001b0: af19 75be f658 9e3e 62b4 42be 1059 c63e
000001c0: 1110 0140 f6e2 f0b9 74d2 3bbf f85c c43e
000001d0: 9464 163f 3c7c 08be 6f77 90bf 25a0 02bd
000001e0: 223a e2be 6baa 6fbf 8c0f 0640 c6ee acbc
000001f0: 8649 f8be 9baa 22bf 5f2a 4abf d42d b5c0
00000200: e21a ddbf c61c c63e 96a1 863f 158d d0bf
00000210: 2e78 2740 ca30 b73e 0e8a 6f3d 43aa 68bf
00000220: 044f a03e 190f 97bb 2bb4 1dbf acb0 643f
00000230: fa82 b13e e786 473f 6360 80c0 0ef6 c6c0
00000240: a841 8b3f e27d 75bf aa1b 613f 908c 5c40
00000250: 8e9f 503f f60f 25bf a7f7 4cc0 4330 55bf
00000260: 0926 fabf 966d a43e 6976 dabe fed9 9cc0
00000270: b79e 8dc0 178c d7bf 2994 2bc0 d82e d63f
00000280: fc7e 1bbe 3c8d 27bd 98da 61bf 2bb7 1c40
00000290: 5b1d c63f 54ad 1d3c dc39 4d3f 492f 9dbf
000002a0: 46e1 963f 0b41 7bbf 35a6 10bf 707e 4e40
000002b0: d4e7 4bc0 3f53 16c0 d3f8 50be 0dd1 8cc0
000002c0: c8ca 283e 4751 2d3e 4075 1abf 811e 0f3e
000002d0: e43e 283f cb98 3d3f 7549 893f 6222 68bb
000002e0: 14ba 99bf f6a9 3fbc 7aad 51be 382e 2bbf
000002f0: e7b6 7c3e f80b 1fbe bddf adbf e778 abbf
00000300: dac0 793e c152 5940 a116 a8c0 0e07 b1bf
00000310: 6fe8 eac0 9a9c 2840 61e6 b6bf c32c 99c0
00000320: 2d48 e53e a9e0 71bf 2837 30c0 6130 df3f
00000330: 89b5 ccc0 163d bf3f df19 0dbf a38d 0d40
00000340: 9dee 1940 d532 3dbc 5b62 18bc dc81 5fbf
00000350: 6efb 99bf 437e 763f fec0 e53f 695d 863f
00000360: 32b9 9fbe 18f6 7b3e b37f 013e 0113 f5bd
00000370: 3dc3 333f 6be6 183f 3ce5 f43f 5cbc a23b
00000380: 7bdf 06bf 7a96 38bf 777c 99be b638 fc3e
00000390: f645 34be b8b3 33be fa7f 093f a251 33bf
000003a0: df89 483f 26d3 37be 42b0 693f 3c6f 73bf
000003b0: 805b 623f 4cd2 a4bf c267 ef40 94c3 8bc1
000003c0: 7ade 13bf 164a 913f ed3c e33e 4c63 a13c
000003d0: e680 cabe aead 613d 4313 6f3f 36df 723f
000003e0: 2485 913e a466 51bf a0d8 f2be f9ec 943f
000003f0: 51ea b03d cca7 c5bd c8f2 033f 23a6 4cbf

lstm.weight_hh_l0 f4 [256, 64]
0.04657954 -0.0061952323 0.061353594 0.08687021 -0.044557124 -0.0010020435 -0.03190869 -0.057924613
-0.047729313 0.040424436 0.007253334 -0.0065075755 -0.041935846 -0.09989306 0.035965785 -0.08083604
-0.04060684 -0.111153364 0.031959653 -0.068932936 0.09565556 0.050123602 -0.010191962 -0.06470716
-0.072056934 -0.011423051 0.06113641 -0.00092417 -0.0065287948 -0.03275132 -0.080181316 -0.08052026
0.043179005 -0.070687726 -0.057161987 -0.07812567 -0.110579416 -0.017803758 0.060593054 0.073991925
-0.09623216 -0.047435433 -0.087902516 0.023557484 0.052558273 0.050018698 -0.11643775 0.114940986
-0.037033334 0.03435248 0.076114416 0.06307894 -0.06997125 0.11615287 -0.0072858483 0.11724736
-0.051466733 0.07946643 0.09642494 0.061239228 0.060512304 0.11254583 -0.045843586 -0.08680311
-0.03977342 0.08246413 0.09398636 0.077700585 0.029326752 0.07260114 -0.09124808 -0.038921654
-0.03191936 0.017317235 0.034293875 0.038181648 -0.0948208 -0.055732116 -0.0136512965 0.11521414
0.06218946 -0.07753493 0.02421838 -0.02410169 0.09062676 -0.11782983 -0.084169164 0.0845592
-0.0076111853 -0.122135386 0.0100604445 0.043509945 0.047257364 -0.102774784 -0.07424876 0.07977192
0.029325366 -0.12385975 -0.07292074 -0.115077585 0.003712684 0.038500533 -0.07878192 -0.09334317
-0.045201793 0.041874006 -0.004976332 0.103161454 -0.046667844 0.039113224 -0.05397919 0.12016761
0.030425116 -0.054779768 0.046673357 0.12182441 -0.0053466707 -0.0035086721 -0.115269125 -0.0903773
0.0024173558 0.08392465 -0.12143041 -0.10916288 -0.040596962 -0.10819714 0.013160512 0.105446264
0.08548845 -0.001281783 -0.0948067 0.0032948703 0.058163658 -0.018896058 0.017538115 -0.004731253
0.074061945 0.049956053 -0.013781399 -0.05591467 -0.1156365 0.09347312 -0.016080871 0.048248023
-0.075522006 -0.04797104 -0.08065754 0.04708542 0.096404 -0.11453606 -0.05960083 -0.094681025
-0.025592104 -0.052677438 0.03993237 0.08194861 -0.12489791 0.102808535 -0.07080214 0.07155228
0.061003327 -0.052313566 0.04208535 0.09406744 -0.08231917 0.09026672 0.111818045 0.01127328
0.035865977 0.03816797 -0.10920967 -0.06225279 -0.08856283 0.06317951 0.088521734 0.06873214
0.07328895 0.10821965 0.05522649 -0.060636535 0.062314987 0.051623866 -0.012295365 0.0918691
0.0167377 -0.020401299 -0.10443272 0.0703195 0.110700205 -0.023249015 0.08388671 0.03581737
0.1056305 -0.11008504 -0.08535445 0.06153682 0.05653867 0.028789088 -0.0041790903 -0.07182485
-0.046747446 -0.09574659 0.032610804 0.118078455 -0.12199877 -0.09548673 0.06891017 -0.11187664
-0.112863064 -0.026094183 -0.074428976 0.061449036 -0.078816146 0.052476913 -0.10113251 0.062346205
-0.037588537 0.076925516 0.035072416 -0.08389503 -0.0023382455 0.08970763 0.09028651 0.05696644
0.04521075 -0.014370903 -0.115935475 -0.0028704852 -0.08534202 0.11229719 -0.11795713 -0.0520975
-0.043638512 0.049317762 -0.050150216 -0.07542203 0.11420335 0.081425264 0.088152945 0.005965695
-0.118909076 0.1006369 -0.008792475 -0.047401607 -0.023103714 0.0057219416 0.03852503 -0.07325004
-0.06913498 -0.09897657 -0.09134048 -0.088862285 0.08173822 0.10857049 -0.0736341 -0.10890733
00000000: 30ca 3e3d 6001 cbbb e84d 7b3d 02e9 b13d
00000010: 8881 36bd 0057 83ba b0b2 02bd 5c42 6dbd
00000020: d07f 43bd 1894 253d 60ad ed3b 803d d5bb
00000030: ecc4 2bbd bc94 ccbd dc50 133d 5e8d a5bd
00000040: 5c53 26bd 60a4 e3bd 20e8 023d b62c 8dbd
00000050: 10e7 c33d 684e 4d3d 30fc 26bc 3085 84bd
00000060: 9692 93bd c027 3bbc 2c6a 7a3d 0044 72ba
00000070: 80ef d5bb 4026 06bd 1a36 a4bd cee7 a4bd
00000080: 78dc 303d bac4 90bd b022 6abd 5a00 a0bd
00000090: 7677 e2bd 30d9 91bc 6c30 783d 1489 973d
000000a0: 5e15 c5bd a84b 42bd 3c06 b4bd a0fb c03c
000000b0: 5847 573d 68e0 4c3d ea76 eebd 2e66 eb3d
000000c0: 44b0 17bd 30b5 0c3d e0e1 9b3d 882f 813d
000000d0: 164d 8fbd 8ee1 ed3d 20be eebb 621f f03d
000000e0: c8ce 52bd 4cbf a23d 707a c53d fcd5 7a3d
000000f0: c0db 773d 6e7e e63d 7cc6 3bbd d4c5 b1bd
00000100: 74e9 22bd f4e2 a83d ec7b c03d 7c21 9f3d
00000110: a83e f03c e8af 943d 46e0 babd 506c 1fbd
00000120: e0bd 02bd e0dc 8d3c bc77 0c3d 5c64 1c3d
00000130: 6831 c2bd 5c47 64bd b0a9 5fbc 64f5 eb3d
00000140: 60ba 7e3d a2ca 9ebd a065 c63c e870 c5bc
00000150: 869a b93d c450 f1bd e260 acbd 602d ad3d
00000160: 4067 f9bb 1e22 fabd 90d4 243c 7c37 323d
00000170: f090 413d 967b d2bd bc0f 98bd 765f a33d
00000180: c03b f03c 2eaa fdbd 7857 95bd ccad ebbd
00000190: 8050 733b bcb2 1d3d 6a58 a1bd b42a bfbd
000001a0: 8425 39bd 1484 2b3d 8010 a3bb 5046 d33d
000001b0: c826 3fbd 3035 203d 4819 5dbd 701a f63d
000001c0: 183e f93c c060 60bd 902c 3f3d 147f f93d
000001d0: 2033 afbb c0f1 65bb 3812 ecbd bc17 b9bd
000001e0: 806c 1e3b b0e0 ab3d 82b0 f8bd ca90 dfbd
000001f0: 0049 26bd 7696 ddbd 309f 573c 36f4 d73d
00000200: 9214 af3d 8001 a8ba 042a c2bd c0ee 573b
00000210: 043d 6e3d e8cb 9abc 18ac 8f3c a008 9bbb
00000220: caad 973d b89e 4c3d 60cb 61bc c806 65bd
00000230: d4d2 ecbd d66e bf3d 08bc 83bc b89f 453d
00000240: 48ab 9abd 487d 44bd c82f a5bd a4dc 403d
00000250: 766f c53d e291 eabd 0020 74bd 20e8 c1bd
00000260: 88a6 d1bc 4cc4 57bd 2090 233d acd4 a73d
00000270: 7aca ffbd 488d d23d b600 91bd 008a 923d
00000280: a0de 793d c046 56bd b061 2c3d 6ea6 c03d
00000290: f496 a8bd c2dd b83d dc00 e53d 90b3 383c
000002a0: 34e8 123d 0456 1c3d 52a9 dfbd c8fc 7ebd
000002b0: 6e60 b5bd 4264 813d e24a b53d 70c3 8c3d
000002c0: 8418 963d 44a2 dd3d 2c35 623d 045e 78bd
000002d0: 003e 7f3d 8c73 533d 8072 49bc de25 bc3d
000002e0: 801d 893c a020 a7bc d2e0 d5bd ac03 903d
000002f0: cab6 e23d b874 bebc cccc ab3d 3cb5 123d
00000300: ce54 d83d 4474 e1bd 50ce aebd 080e 7c3d
00000310: 1895 673d 18d7 eb3c c0f0 88bb e818 93bd
00000320: 407a 3fbd ca16 c4bd e892 053d 1ed3 f13d
00000330: 7eda f9bd 8c8e c3bd c620 8d3d 941f e5bd
00000340: c024 e7bd 78c3 d5bc 386e 98bd fcb1 7b3d
00000350: 5c6a a1bd 08f2 563d 901e cfbd bc5e 7f3d
00000360: 70f6 19bd 208b 9d3d 18a8 0f3d 28d1 abbd
00000370: 403d 19bb a2b8 b73d 22e8 b83d a455 693d
00000380: e82e 393d f073 6bbc 946f edbd c01e 3cbb
00000390: ccc7 aebd 12fc e53d 8293 f1bd 3064 55bd
000003a0: 4cbe 32bd 6c01 4a3d 506a 4dbd de76 9abd
000003b0: 72e3 e93d 4ac2 a63d 8889 b43d e07b c33b
000003c0: 9a86 f3bd b81a ce3d 500e 10bc 3028 42bd
000003d0: 0044 bdbc 207f bb3b 6ccc 1d3d 1e04 96bd
000003e0: a496 8dbd 3ab4 cabd b810 bbbd 6efd b5bd
000003f0: 5e66 a73d 345a de3d 7acd 96bd ce0a dfbd

lstm.bias_ih_l0 f4 [256]
-0.75877064 -1.4695079 -0.17327699 -1.5063785 -4.100693 -2.9821649 -2.9691074 -0.46896228
1.8884094 -0.017117525 -3.3458242 2.9477608 0.69106174 -2.580226 -0.5687306 -4.947764
1.6428537 -2.0494392 5.3988347 1.44553 0.065118395 1.7608048 -6.271348 0.40912324
0.35120156 -3.425671 -1.3201432 -3.2221017 -3.5589623 0.70792824 -1.7337774 -1.7272936
-1.8645184 1.5941212 -2.6420124 -1.6589125 -1.206884 0.32955855 -2.1330268 -4.1004434
-0.9613163 -1.6326004 2.0412736 0.6244672 -5.730281 1.7024672 -2.1224337 -5.5669904
-1.8732072 -0.86576164 2.1609867 -0.5260165 2.495291 -1.4222617 -2.9500034 -1.4533162
-1.4897302 -2.156379 0.07403306 -0.6388544 -3.7134027 0.45320362 0.19629239 -3.324782
-0.033397645 -0.047169313 -0.09140186 -0.059975892 0.123182714 0.09920271 -0.11872874 -0.052117825
0.123318896 -0.07707387 -0.05619012 0.091221824 -0.057482302 0.06377526 0.101857305 0.016763106
0.106569335 0.09518142 -0.005953446 0.038142174 0.05182533 0.100313455 0.003951758 -0.10071476
0.09937191 -0.055745482 0.0009687394 0.0604544 0.07838765 -0.027696624 -0.100028574 -0.01693575
0.058920696 0.09195542 0.07445401 0.033195183 -0.09307599 0.07546981 0.101010755 0.09916277
-0.11337598 -0.009869233 -0.008130774 0.0113182515 0.010401815 -0.12376961 0.06366889 -0.006554976
-0.008119836 -0.05696805 -0.109801024 0.05457802 0.046581924 -0.1137279 -0.09942955 0.073837936
0.005559668 -0.068122566 -0.041526124 -0.002374038 -0.011035338 0.070999175 -0.04661964 0.10017292
-4.766843 2.7075748 1.4456304 0.6172595 -1.8638107 2.0983572 0.317209 -0.32964194
-2.5974686 -0.84794044 -0.8283912 -1.7532029 4.4257717 0.3294578 -1.6777995 -0.60582954
-0.931741 0.5492802 -2.58852 0.8480811 -0.6323691 0.8453848 -1.8570962 -1.7170094
1.6900231 -1.1799628 1.9950776 -2.2550857 -0.7931559 1.2167151 3.649966 -0.3257222
-1.599047 1.5296589 0.44913405 0.82701385 1.8632065 -0.4146407 0.40324673 2.6138685
-2.5247335 0.35494646 -3.096024 2.508551 -0.033133015 3.2588813 1.5089643 0.20245749
2.956623 -0.5673366 0.11616257 -0.16476484 0.6147809 -0.23183797 -2.1464455 0.88469094
-2.133664 1.8141366 -2.1375086 -1.5526348 2.0880773 2.0568416 -5.015041 -0.12800553
0.6942302 1.3170023 -1.0906855 -3.8291142 -1.3034465 -2.6596377 -1.5169944 -0.39938572
1.7436448 -3.3174639 -2.4454665 2.6118894 1.4944965 -0.73137945 0.55598587 -2.4653943
-0.26972637 -3.7684033 -2.2392697 -0.13964526 -3.4710727 0.1363833 -2.971166 0.38318294
-2.4006639 -1.3793558 -1.9001895 -2.215495 -3.3963609 0.99027896 -1.9750891 -3.331694
-0.38115707 0.8094404 -3.0661476 -5.581437 0.03738169 -2.588624 -6.0437593 -2.6057785
-1.4151582 0.8896316 5.8692837 1.7027396 -2.115425 0.1414256 -0.33757704 -0.9193376
0.60723025 -1.3371079 1.0452281 -0.56548506 3.497753 -1.3269094 0.1801104 -2.179729
-5.165178 -0.1428681 -2.024503 -1.2714642 -4.3217716 -1.8210406 1.8125523 -4.492797
00000000: cb3e 42bf d618 bcbf 866f 31be 03d1 c0bf
00000010: e138 83c0 cadb 3ec0 db05 3ec0 d31b f0be
00000020: 66b7 f13f 0d3a 8cbc fc21 56c0 1da8 3c40
00000030: 6ce9 303f 6c22 25c0 5498 11bf 1554 9ec0
00000040: 0849 d23f 032a 03c0 41c3 ac40 2107 b93f
00000050: cb5c 853d 0d62 e13f e2ae c8c0 9a78 d13e
00000060: b1d0 b33e 323e 5bc0 74fa a8bf ea36 4ec0
00000070: 0ac6 63c0 c93a 353f 6bec ddbf f517 ddbf
00000080: 8aa8 eebf 2a0c cc3f bb16 29c0 3f57 d4bf
00000090: 2d7b 9abf e6bb a83e 8383 08c0 d536 83c0
000000a0: d318 76bf 0df9 d0bf 3aa4 0240 15dd 1f3f
000000b0: 765e b7c0 72ea d93f f4d5 07c0 c924 b2c0
000000c0: 41c5 efbf 8ea2 5dbf 9b4d 0a40 04a9 06bf
000000d0: d9b2 1f40 ac0c b6bf dbcc 3cc0 4406 babf
000000e0: 7baf bebf 1d02 0ac0 a59e 973d f68b 23bf
000000f0: 64a8 6dc0 4e0a e83e df00 493e 3ac9 54c0
00000100: f8cb 08bd 9c34 41bd e630 bbbd 48a9 75bd
00000110: 3847 fc3d ca2a cb3d 0e28 f3bd 8079 55bd
00000120: 9e8e fc3d e8d8 9dbd 9c27 66bd 82d2 ba3d
00000130: 9072 6bbd 9a9c 823d 909a d03d c852 893c
00000140: 0641 da3d 7aee c23d 2015 c3bb f83a 1c3d
00000150: cc46 543d 2471 cd3d c07d 813b 8a43 cebd
00000160: 8083 cb3d 6055 64bd 00f3 7d3a 089f 773d
00000170: b489 a03d 08e4 e2bc c8db ccbd d8bc 8abc
00000180: d456 713d 2053 bc3d 587b 983d acf7 073d
00000190: a09e bebd ea8f 9a3d bade ce3d da15 cb3d
000001a0: aa31 e8bd 90b2 21bc f036 05bc 3070 393c
000001b0: 606c 2a3c ec7a fdbd d664 823d 20cb d6bb
000001c0: 1009 05bc 5457 69bd 5cdf e0bd 348d 5f3d
000001d0: b0cc 3e3d 2cea e8bd b8a1 cbbd 5838 973d
000001e0: e02d b63b d883 8bbd 4c17 2abd c095 1bbb
000001f0: 90cd 34bc 0468 913d 3cf4 3ebd 7627 cd3d
00000200: fa89 98c0 e848 2d40 6b0a b93f b804 1e3f
00000210: 5991 eebf 7c4b 0640 3869 a23e d4c6 a8be
00000220: ed3c 26c0 a012 59bf 7211 54bf f468 e0bf
00000230: ec9f 8d40 b1ae a83e 22c2 d6bf a517 1bbf
00000240: 9486 6ebf a19d 0c3f 50aa 25c0 d81b 593f
00000250: f1e2 21bf 236b 583f 54b5 edbf f7c6 dbbf
00000260: ad52 d83f 0509 97bf b45e ff3f 5353 10c0
00000270: 440c 4bbf 52bd 9b3f 0b99 6940 0fc5 a6be
00000280: 92ad ccbf ddcb c33f e6f4 e53e 2eb7 533f
00000290: 8d7d ee3f c94b d4be 5b76 ce3e 9f49 2740
000002a0: 3c95 21c0 8bbb b53e 4225 46c0 198c 2040
000002b0: 7cb6 07bd 8391 5040 be25 c13f 0451 4f3e
000002c0: 5039 3d40 f93c 11bf a4e6 ed3d 1db8 28be
000002d0: 4862 1d3f ef66 6dbe 5d5f 09c0 1b7b 623f
000002e0: f38d 08c0 a135 e83f f1cc 08c0 bdbc c6bf
000002f0: 0fa3 0540 4ba3 0340 377b a0c0 e213 03be
00000300: 12b9 313f 8893 a83f 959b 8bbf 3510 75c0
00000310: 56d7 a6bf 8137 2ac0 df2c c2bf 497c ccbe
00000320: c12f df3f 5451 54c0 8682 1cc0 3229 2740
00000330: a94b bf3f af3b 3bbf 1755 0e3f 05c9 1dc0
00000340: 9319 8abe 852d 71c0 3250 0fc0 2bff 0ebe
00000350: 0e26 5ec0 10a8 0b3e 9527 3ec0 8e30 c43e
00000360: 7aa4 19c0 bb8e b0bf 6939 f3bf acca 0dc0
00000370: fa5d 59c0 ec82 7d3f b8cf fcbf 793a 55c0
00000380: 0527 c3be 7c37 4f3f c33b 44c0 229b b2c0
00000390: 8b1d 193d 04ac 25c0 7a66 c1c0 13c5 26c0
000003a0: e723 b5bf e6be 633f 2cd1 bb40 5ff3 d93f
000003b0: 2063 07c0 dfd1 103e e6d6 acbe b559 6bbf
000003c0: 7173 1b3f 5a26 abbf 09ca 853f a1c3 10bf
000003d0: 2fdb 5f40 2bd8 a9bf dc6e 383e ae80 0bc0
000003e0: 2349 a5c0 044c 12be 7591 01c0 57bf a2bf
000003f0: f44b 8ac0 dc17 e9bf b701 e83f fec4 8fc0

lstm.bias_hh_l0 f4 [256]
-0.5893493 -1.5840929 -0.19501483 -1.3895354 -4.0073795 -2.8396196 -3.1059299 -0.40306237
1.7579713 -0.0692089 -3.1569269 3.1766026 0.8447892 -2.4785514 -0.6971181 -4.953971
1.7066833 -1.8141966 5.3381686 1.3933648 0.14656603 1.7019736 -6.217713 0.3834176
0.3610819 -3.208575 -1.2853746 -3.3435087 -3.5926354 0.7641008 -1.5618223 -1.5856897
-1.8686022 1.6138161 -2.5423281 -1.7402619 -1.3238955 0.3324168 -2.2380383 -3.9507294
-1.0242014 -1.4501477 2.0801802 0.40910715 -5.7049212 1.7497269 -2.26832 -5.693758
-2.0485938 -0.64139515 2.0392249 -0.47976157 2.4289517 -1.3819153 -2.9746656 -1.2948021
-1.3716267 -2.1538577 0.17757213 -0.49322072 -3.7482502 0.4156343 0.18372057 -3.3326273
0.0652688 -6.864965e-05 0.06939918 -0.028065786 0.02356404 0.046489015 0.041529477 0.009135351
-0.05565241 -0.018698692 0.07356487 -0.0053903162 0.05634749 0.073279664 0.027755812 -0.0077590942
-0.046535 -0.08117862 -0.1113068 -0.008067936 -0.10002369 -0.07946679 0.09836395 -0.10058345
-0.072522804 0.10541707 -0.017413676 -0.060505927 -0.03245814 -0.043861747 0.028723106 0.09417081
0.04573247 -0.11380227 -0.082135454 -0.04298936 -0.058395416 -0.028938934 -0.010534376 -0.0716082
0.08317089 -0.051794708 -0.012139544 0.066109836 0.05456443 -0.07644315 -0.085954845 -0.030882463
-0.02423206 -0.029754147 0.04111564 0.05357565 -0.07988042 0.05280821 -0.047112465 -0.080211654
0.11955969 0.0051532835 -0.09808688 -0.080872 -0.08320576 -0.015433073 0.06184958 0.07529195
-4.98146 2.5958717 1.4999925 0.78636533 -1.9478179 2.10548 0.30637908 -0.3542588
-2.6083767 -1.0203811 -0.87545824 -1.7710748 4.4075637 0.43737403 -1.629216 -0.4405676
-0.9382004 0.5281144 -2.3728614 0.84315115 -0.6371836 0.73767996 -1.8303556 -1.7439266
1.5909932 -1.3090988 1.9018179 -2.2719266 -0.81163317 1.083099 3.425114 -0.4216318
-1.6436169 1.492041 0.3337114 0.95254153 2.0288155 -0.21274278 0.39188775 2.578088
-2.4156933 0.35014793 -2.9589953 2.4586625 -0.0755568 3.2986288 1.487391 0.27635467
3.0449653 -0.54556286 0.33721697 -0.07107745 0.599522 -0.16607994 -2.204848 0.9079406
-2.357088 1.7830331 -2.264042 -1.4265611 2.112404 2.0822728 -4.8803296 -0.030907338
0.78650284 1.2724913 -1.2143357 -3.8986294 -1.4689201 -2.7507284 -1.6460295 -0.28444734
1.8782047 -3.2562575 -2.4951916 2.6040738 1.4358549 -0.7619445 0.5348427 -2.5154035
-0.26370183 -3.7587433 -2.1910858 -0.23494688 -3.4423041 0.16393742 -3.0316217 0.5773136
-2.3866267 -1.370396 -1.6633806 -2.1174526 -3.4161625 0.9749509 -1.9532667 -3.3252356
-0.2201935 0.80131066 -2.9940307 -5.5817704 -0.015017732 -2.5576832 -6.0619946 -2.6338935
-1.3448035 0.8617557 6.005841 1.8221391 -2.0092003 0.21882632 -0.35967907 -1.024505
0.49008766 -1.3354743 0.87117845 -0.530125 3.6006098 -1.3209544 0.250021 -2.1446037
-5.2320232 -0.24479866 -2.12978 -1.3468779 -4.3422465 -1.9252877 1.86314 -4.5134015
00000000: 99df 16bf 8ec3 cabf f8b1 47be 4cdc b1bf
00000010: 743c 80c0 54bc 35c0 8ec7 46c0 315e cebe
00000020: 3405 e13f 65bd 8dbd 170b 4ac0 754d 4b40
00000030: 1b44 583f 96a0 1ec0 5576 32bf ee86 9ec0
00000040: 9974 da3f 9837 e8bf 47d2 aa40 c759 b23f
00000050: 6815 163e 45da d93f 81f7 c6c0 504f c43e
00000060: badf b83e 4b59 4dc0 2887 a4bf 0cfc 55c0
00000070: bded 65c0 1c9c 433f cbe9 c7bf e1f7 cabf
00000080: 5b2e efbf 8791 ce3f 81b5 22c0 e7c0 debf
00000090: 6875 a9bf 8932 aa3e 053c 0fc0 c0d8 7cc0
000000a0: 0819 83bf 719e b9bf ac21 0540 7e76 d13e
000000b0: b78e b6c0 0df7 df3f 282c 11c0 4433 b6c0
000000c0: 291c 03c0 7932 24bf a982 0240 4fa3 f5be
000000d0: f273 1b40 9ae2 b0bf ec60 3ec0 13bc a5bf
000000e0: 7791 afbf ced8 09c0 78d5 353e 6d87 fcbe
000000f0: 55e3 6fc0 05ce d43e 3f21 3c3e c449 55c0
00000100: a6ab 853d 00f8 8fb8 2821 8e3d 38ea e5bc
00000110: 6009 c13c 446b 3e3d d01a 2a3d 70ac 153c
00000120: c8f3 63bd 002e 99bc 2ea9 963d 40a1 b0bb
00000130: a0cc 663d a613 963d 2860 e33c 0040 febb
00000140: 7c9b 3ebd fa40 a6bd d2f4 e3bd 602f 04bc
00000150: 38d9 ccbd 7cbf a2bd 0a73 c93d b2fe cdbd
00000160: d686 94bd e8e4 d73d 20a7 8ebc 10d5 77bd
00000170: d4f2 04bd 60a8 33bd b84c eb3c a0dc c03d
00000180: f851 3b3d 2a11 e9bd a236 a8bd 9c15 30bd
00000190: 0830 6fbd 5811 edbc 6098 2cbc 52a7 92bd
000001a0: 8055 aa3d b026 54bd f0e4 46bc 9864 873d
000001b0: f47e 5f3d 3a8e 9cbd 1809 b0bd 38fd fcbc
000001c0: 5082 c6bc f8be f3bc e068 283d 2472 5b3d
000001d0: 5898 a3bd 6c4d 583d 00f9 40bd 0246 a4bd
000001e0: b6db f43d e0dc a83b c6e1 c8bd 38a0 a5bd
000001f0: c867 aabd 00db 7cbc fc55 7d3d aa32 9a3d
00000200: 1f68 9fc0 c322 2640 c1ff bf3f 3d4f 493f
00000210: 1952 f9bf 2fc0 0640 b8dd 9c3e 6961 b5be
00000220: a5ef 26c0 d99b 82bf 081e 60bf 94b2 e2bf
00000230: c30a 8d40 7def df3e 268a d0bf 1492 e1be
00000240: e72d 70bf 8132 073f f6dc 17c0 c1d8 573f
00000250: 771e 23bf 98d8 3c3f 1849 eabf fd38 dfbf
00000260: aaa5 cb3f 8d90 a7bf c56e f33f 3f67 11c0
00000270: 31c7 4fbf fda2 8a3f 1135 5b40 20e0 d7be
00000280: 0a62 d2bf 33fb be3f 38dc aa3e c3d9 733f
00000290: 1dd8 0140 3ed9 59be 83a5 c83e 65ff 2440
000002a0: b89a 1ac0 9746 b33e 2e60 3dc0 ba5a 1d40
000002b0: 86bd 9abd bc1c 5340 d462 be3f 5c7e 8d3e
000002c0: b6e0 4240 02aa 0bbf b4a7 ac3e 0e91 91bd
000002d0: 467a 193f dc10 2abe 3b1c 0dc0 cc6e 683f
000002e0: 88da 16c0 6e3a e43f 10e6 10c0 8e99 b6bf
000002f0: a131 0740 f543 0540 a92b 9cc0 6331 fdbc
00000300: 4058 493f ffe0 a23f 5a6f 9bbf 2583 79c0
00000310: 9305 bcbf ef0b 30c0 18b1 d2bf 15a3 91be
00000320: 0369 f03f 8666 50c0 38b1 1fc0 25a9 2640
00000330: 18ca b73f cb0e 43bf 74eb 083f 5ffc 20c0
00000340: ed03 87be 408f 70c0 c03a 0cc0 ea95 70be
00000350: b64e 5cc0 36df 273e 1706 42c0 d3ca 133f
00000360: 7ebe 18c0 2369 afbf a8e9 d4bf 5884 07c0
00000370: 68a2 5ac0 6296 793f a504 fabf a9d0 54c0
00000380: 687a 61be b222 4d3f 339e 3fc0 dd9d b2c0
00000390: ef0c 76bc 15b1 23c0 dcfb c1c0 b691 28c0
000003a0: 8522 acbf 069c 5c3f d92f c040 db3b e93f
000003b0: bd96 00c0 0214 603e db27 b8be fb22 83bf
000003c0: c5ec fa3e d2f0 aabf 8d05 5f3f 46b6 07bf
000003d0: 6470 6640 0915 a9bf c102 803e 3041 09c0
000003e0: bc6c a7c0 80ac 7abe 514e 08c0 7f66 acbf
000003f0: aff3 8ac0 d46f f6bf 5f7b ee3f c96d 90c0

lstm.weight_ih_l1 f4 [256, 64]
-0.4680595 -0.30594248 0.16073303 10.402097 -50.095776 -0.72992367 0.5973369 0.070986405
0.66729116 -4.220964 -9.39626 -11.266572 -1.6301705 0.52116317 -13.145172 66.69659
0.7400033 -4.470685 -138.30165 0.08457462 0.24493727 -0.6769023 -1.7533245 0.24971607
-0.13131396 0.13125879 0.1207224 7.3306413 0.66391516 -0.43841347 -0.2267907 23.49316
0.29615143 -0.20028542 -1.6972858 7.01571 0.6110435 -6.1882987 38.812164 -2.9980838
-1.6700089 6.434048 -0.9188156 0.19796544 -3.0974376 0.5279441 0.6286969 32.331066
-0.32197517 0.5802999 -0.30689502 -3.0022514 -0.2256967 -0.6656403 1.8292166 -1.8926615
-80.81967 -7.72789 0.5681691 -8.09921 -13.156734 1.9356318 -1.7202709 -11.294531
-2.4105642 -6.1175313 -0.20314582 1.5159178 -2.085772 -0.49896204 -2.587328 -2.3881617
0.38297102 -2.606761 -0.0033194914 -2.2885401 0.26100302 -2.701353 -0.23525114 1.4466738
1.6064535 0.28737366 1.3946868 -1.2587297 -1.7662641 -1.2885481 -2.196983 0.28788635
2.1119664 2.1330223 3.557449 -0.9025847 -0.20598283 0.88121444 1.533958 0.024687931
-0.718473 -0.3157116 -2.4141068 1.9264876 -1.4157232 -2.1385024 -1.2251623 -1.1325155
-0.9941038 -0.09304944 -0.34027964 -4.38008 0.5758542 -1.0777664 -2.6579168 2.269325
-0.7815371 -1.4499193 3.880976 -0.69790787 -2.203495 -0.38870922 -2.0677328 -0.50195366
1.3883516 1.662637 6.5949893 -0.49864578 3.3388195 1.8445417 1.3431472 3.8189068
3.2143404 -10.519222 0.10863196 5.1995864 -5.6263704 2.6600807 5.948932 -3.5996993
-2.9177928 -0.7603597 -0.9556035 -7.060673 -0.9107458 11.319741 -1.8845216 3.5738761
-6.7019835 1.9572173 20.112045 -6.4418964 0.36485994 -4.273598 -1.1413642 1.160961
0.19497484 1.1985708 6.046047 -1.2564054 -3.5746667 -0.018605595 -0.5710323 4.54758
-2.0731044 -3.7965686 -4.3567777 3.5759697 4.729676 -2.8391163 3.8201022 2.8632312
2.8800168 2.9940012 -0.39869303 7.9185543 -0.5125698 0.5111247 -3.8650672 -1.0395184
-10.214882 -4.0966864 -4.0367136 1.1908814 -4.24601 -1.7638991 3.2431157 1.6138362
1.4170828 1.7534535 -2.0744584 0.30225667 1.5403405 -0.95791715 1.1281326 1.0014076
-3.0678802 -0.9917583 -0.25993204 1.9309907 -8.159146 -3.3256474 0.44237217 1.7664726
0.46463704 -3.3689432 -2.5432305 3.226996 -7.708649 12.517897 -2.3667321 2.8370695
-0.303657 -0.18720596 0.45653993 3.24784 -0.80044204 -1.0724075 2.581936 0.62675476
-0.8033533 2.3202047 -2.096807 -1.2528567 -0.49248162 -3.5652416 -0.39319357 2.7322068
-5.898056 0.18023624 -5.220382 5.1665874 -0.08673701 -3.7474756 1.1603857 0.57917756
0.65043014 -1.8963888 -1.387228 -1.5118142 -2.2521517 2.622418 5.627231 2.8092775
3.1084785 4.6999464 0.9223715 -2.1656475 -2.4510553 -1.2263291 -5.9178586 0.16520527
-1.6712556 -1.9622617 -1.2231392 -2.571459 -0.112494245 0.5816818 0.6804779 0.27763748
00000000: 7fa5 efbe 7ea4 9cbe 3397 243e fd6e 2641
00000010: 1362 48c2 47dc 3abf 12eb 183f 5261 913d
00000020: 98d3 2a3f 2312 87c0 1557 16c1 e143 34c1
00000030: 6da9 d0bf f36a 053f a052 52c1 a764 8542
00000040: db70 3d3f da0f 8fc0 394d 0ac3 7535 ad3d
00000050: d6d0 7a3e 7849 2dbf f06c e0bf 92b5 7f3e
00000060: 2b77 06be b468 063e 4e3d f73d 9d94 ea40
00000070: 58f6 293f bb77 e0be d23b 68be fef1 bb41
00000080: 29a1 973e 9f17 4dbe a940 d9bf b280 e040
00000090: 596d 1c3f 8b06 c6c0 a83f 1b42 9be0 3fc0
000000a0: dac2 d5bf b9e3 cd40 8037 6bbf 74b7 4a3e
000000b0: 6b3c 46c0 5827 073f 48f2 203f 0353 0142
000000c0: eed9 a4be 898e 143f 5821 9dbe e324 40c0
000000d0: 091d 67be 6767 2abf c523 ea3f bb42 f2bf
000000e0: aca3 a1c2 e04a f7c0 8873 113f 5d96 01c1
000000f0: fc81 52c1 c8c2 f73f d631 dcbf 66b6 34c1
00000100: af46 1ac0 d1c2 c3c0 7505 50be 9809 c23f
00000110: 4a7d 05c0 f477 ffbe c896 25c0 a4d7 18c0
00000120: c714 c43e 2cd5 26c0 d38b 59bb 7177 12c0
00000130: 30a2 853e f8e2 2cc0 ade5 70be 9b2c b93f
00000140: 45a0 cd3f a422 933e 1985 b23f 0e1e a1bf
00000150: f114 e2bf 25ef a4bf 5f9b 0cc0 d765 933e
00000160: 752a 0740 7083 0840 3fad 6340 ca0f 67bf
00000170: 2aed 52be 4597 613f bc58 c43f 583e ca3c
00000180: d9ed 37bf f3a4 a1be ba80 1ac0 2597 f63f
00000190: 6b36 b5bf 39dd 08c0 1ed2 9cbf 45f6 90bf
000001a0: 967d 7ebf b490 bebd 2239 aebe 9e29 8cc0
000001b0: 2e6b 133f 40f4 89bf 4f1b 2ac0 9f3c 1140
000001c0: d112 48bf f596 b9bf e961 7840 17aa 32bf
000001d0: 1006 0dc0 e504 c7be bc55 04c0 0980 00bf
000001e0: 81b5 b13f 4ad1 d43f 270a d340 804e ffbe
000001f0: 38af 5540 f119 ec3f 3fec ab3f f868 7440
00000200: c1b7 4d40 bc4e 28c1 6f7a de3d 0363 a640
00000210: 3a0b b4c0 c33e 2a40 a75d be40 7961 66c0
00000220: 1ebd 3ac0 efa6 42bf 6ea2 74bf 09f1 e1c0
00000230: a326 69bf a91d 3541 0138 f1bf 63ba 6440
00000240: a676 d6c0 1986 fa3f 78e5 a041 0424 cec0
00000250: ecce ba3e 51c1 88c0 3918 92bf 5f9a 943f
00000260: 7ca7 473e c56a 993f 3879 c140 e4d1 a0bf
00000270: 57c7 64c0 c36a 98bc 2c2f 12bf c685 9140
00000280: bead 04c0 fbfa 72c0 b96a 8bc0 b0dc 6440
00000290: 8159 9740 15b4 35c0 8e7c 7440 2e3f 3740
000002a0: 3252 3840 b79d 3f40 7e21 ccbe cc64 fd40
000002b0: c637 03bf 11d9 023f 435d 77c0 f00e 85bf
000002c0: 2870 23c1 0e18 83c0 c22c 81c0 cd6e 983f
000002d0: 50df 87c0 72c7 e1bf 358f 4f40 2f92 ce3f
000002e0: f862 b53f 2a71 e03f edc3 04c0 63c1 9a3e
000002f0: e129 c53f 0f3a 75bf a666 903f 202e 803f
00000300: 2658 44c0 dfe3 7dbf d015 85be b42a f73f
00000310: dd8b 02c1 68d7 54c0 9b7e e23e c61b e23f
00000320: e8e4 ed3e c49c 57c0 4ac4 22c0 1a87 4e40
00000330: 41ad f6c0 4e49 4841 8a78 17c0 8c92 3540
00000340: ee78 9bbe ebb2 3fbe 9abf e93e 9cdc 4f40
00000350: c5e9 4cbf a644 89bf 703e 2540 0073 203f
00000360: 90a8 4dbf 3c7e 1440 1632 06c0 9c5d a0bf
00000370: 8d26 fcbe eb2c 64c0 ab50 c9be 7adc 2e40
00000380: e0bc bcc0 d98f 383e 5f0d a7c0 af54 a540
00000390: 2ca3 b1bd a4d6 6fc0 8587 943f fb44 143f
000003a0: 9782 263f debc f2bf b090 b1bf 2183 c1bf
000003b0: 4123 10c0 b2d5 2740 4712 b440 34cb 3340
000003c0: 50f1 4640 f665 9640 8a20 6c3f f899 0ac0
000003d0: 17de 1cc0 5af8 9cbf 195f bdc0 922b 293e
000003e0: b4eb d5bf 642b fbbf d38f 9cbf c992 24c0
000003f0: 6263 e6bd 19e9 143f cd33 2e3f 8026 8e3e

lstm.weight_hh_l1 f4 [256, 64]
0.123217046 0.11312002 -0.10557236 -0.021956667 -0.048505068 -0.039648533 0.06461944 -0.0695695
-0.09568702 -0.06827399 0.07825488 -0.12248778 0.10319874 -0.10773419 -0.07830033 0.09852645
0.114123106 0.011570647 0.010137454 0.11461191 -0.11345607 0.097209394 -0.023814023 -0.037986293
0.100882605 -0.042385623 0.009286791 -0.057510242 0.0898954 -0.084994555 -0.049511746 0.117745325
-0.09871484 -0.11296664 -0.051720813 -0.10269748 -0.039717406 0.077387184 0.04064235 0.04163395
0.1196598 -0.0753745 0.029498428 -0.10795121 -0.09241475 0.10796578 -0.080788106 -0.046488628
-0.07842684 -0.10487084 0.083228394 0.050626278 -0.09289031 0.028825477 -0.045282274 -0.05043064
-0.047926217 0.11113137 0.07886651 0.089520365 0.08465351 -0.08883521 -0.030094787 -0.0153630525
0.11876722 -0.09589915 0.08159681 0.0005199313 -0.10228814 0.0006093383 -0.024318099 -0.0061094314
0.10550432 0.111551 0.121076226 -0.097913176 0.046913907 0.022415757 0.105568305 0.05008377
0.010021225 0.12497282 0.09970079 0.029232308 0.08647047 -0.010485664 0.119308546 -0.09254752
0.015025303 -0.0835758 0.058608368 -0.09944652 -0.10968499 -0.034128115 -0.09074512 0.044998243
0.061805144 -0.044386044 -0.07439968 -0.06160684 0.06253499 -0.0755589 -0.004576504 0.028584048
0.10756484 -0.090178356 -0.011743873 0.07826458 0.09297004 -0.115734756 -0.006573215 0.106141984
0.03466922 -0.060756996 0.0837674 -0.060329437 0.054602847 -0.10322493 0.08006753 -0.064192444
0.11145893 0.0037878305 0.07526988 -0.099569514 -0.058997914 0.062830254 -0.057558164 0.039149046
-0.0013758391 0.06872293 0.09771915 -0.07272814 -0.102808416 0.027168721 -0.05582258 0.117481336
-0.09937903 0.019494668 0.0010386109 -0.015167952 -0.017776057 0.047811106 0.033780307 0.03532897
0.11346461 0.065338716 -0.018435165 0.047361836 0.070465386 -0.00397712 0.04880303 0.013972402
-0.082307115 0.019328564 -0.10087003 -0.113722846 -0.021819666 -0.057239205 -0.036984563 0.09098181
0.09050611 -0.04299417 -0.017037794 0.03972222 0.06455086 0.06298329 0.00868699 0.018485129
-0.038594604 -0.06336215 -0.0006213188 0.08419974 -0.07103208 -0.06551845 -0.0051595718 0.059767723
0.033622384 0.0550873 -0.10273987 -0.094263494 0.080592036 -0.053016335 0.08521707 0.090583056
0.091692984 0.10450722 0.08106719 -0.09744215 -0.0085389465 0.10503732 -0.009616524 -0.09918538
0.031462878 0.048717305 0.043729916 -0.0149971545 0.054120228 0.0074980557 0.09502472 -0.04138662
0.055348054 -0.0721463 -0.06373522 -0.0713274 0.026533678 0.050482184 -0.07244827 0.012679383
-0.07619767 -0.055752784 0.08452192 0.006928861 -0.1179546 -0.091140926 0.11245988 -0.1094576
-0.0030927658 -0.08105208 0.037105143 0.026960522 -0.015098587 -0.026417524 0.05124384 0.03633125
0.019662902 0.039644197 -0.10298057 -0.0006213039 0.00049461424 -0.098971725 0.0006530136 0.103139535
0.030509949 0.109779984 0.00936386 0.052882284 0.00416629 -0.0231321 0.037347272 0.11922842
-0.0042968243 0.06256987 0.025253624 0.0052839518 -0.028187215 -0.016657501 -0.099010974 0.06843491
-0.12380488 -0.0706598 0.08325341 0.020092264 -0.071122155 0.09014779 -0.08528285 0.015470192
00000000: 3859 fc3d 78ab e73d 5236 d8bd 78de b3bc
00000010: 40ad 46bd 8066 22bd 3257 843d 747a 8ebd
00000020: 8ef7 c3bd 3cd3 8bbd 1844 a03d e0da fabd
00000030: dc59 d33d bea3 dcbd ec5b a0bd 3cc8 c93d
00000040: 60b9 e93d d092 3d3c 9017 263c a6b9 ea3d
00000050: a85b e8bd b815 c73d a015 c3bc 8497 1bbd
00000060: 8a9b ce3d 8c9c 2dbd a027 183c dc8f 6bbd
00000070: 141b b83d a011 aebd d4cc 4abd 7624 f13d
00000080: 022b cabd 0e5b e7bd 34d9 53bd 0e53 d2bd
00000090: b8ae 22bd 2c7d 9e3d 9878 263d 5c88 2a3d
000000a0: 3210 f53d f25d 9abd b0a6 f13c 8615 ddbd
000000b0: f243 bdbd 2a1d dd3d 3c74 a5bd dc6a 3ebd
000000c0: 409e a0bd 86c6 d6bd a673 aa3d 805d 4f3d
000000d0: 463d bebd 6823 ec3c e879 39bd 5c90 4ebd
000000e0: 484e 44bd d898 e33d c484 a13d 7456 b73d
000000f0: d25e ad3d 3cef b5bd 5889 f6bc 50b5 7bbc
00000100: 3a3c f33d c666 c4bd 3a1c a73d 004c 083a
00000110: 727c d1bd 00bc 1f3a c036 c7bc a031 c8bb
00000120: a612 d83d da74 e43d d0f6 f73d b486 c8bd
00000130: cc28 403d 40a1 b73c 3234 d83d a424 4d3d
00000140: 1030 243c c0f1 ff3d ee2f cc3d 9878 ef3c
00000150: 6e17 b13d 10cc 2bbc 0a58 f43d 8e89 bdbd
00000160: b02c 763c ca29 abbd 540f 703d 9eaa cbbd
00000170: 86a2 e0bd ecc9 0bbd 94d8 b9bd 1450 383d
00000180: 6427 7d3d 24ce 35bd dc5e 98bd 7457 7cbd
00000190: 5812 803d a0be 9abd 80f6 95bb 1829 ea3c
000001a0: f44a dc3d 6eaf b8bd 6069 40bc 2e49 a03d
000001b0: 1467 be3d 5806 edbd 2064 d7bb f860 d93d
000001c0: 5001 0e3d 54dc 78bd 3e8e ab3d 001c 77bd
000001d0: 3ca7 5f3d 9867 d3bd 72fa a33d 5477 83bd
000001e0: 9444 e43d 403d 783b 1827 9a3d 1aeb cbbd
000001f0: cca7 71bd 26ad 803d 1cc2 6bbd c05a 203d
00000200: 8055 b4ba 9cbe 8c3d fa20 c83d 7ef2 94bd
00000210: 388d d2bd f090 de3c 38a6 64bd 0e9a f03d
00000220: 3c87 cbbd 48b3 9f3c 0022 883a 0083 78bc
00000230: 189f 91bc 94d5 433d 385d 0a3d 1cb5 103d
00000240: 2260 e83d 4ed0 853d 5805 97bc 7cfe 413d
00000250: 2850 903d 8052 82bb b0e5 473d 80ec 643c
00000260: a290 a8bd f056 9e3c f294 cebd 86e7 e8bd
00000270: 28bf b2bc a873 6abd 207d 17bd ac54 ba3d
00000280: 445b b93d a81a 30bd d892 8bbc c4b3 223d
00000290: 3e33 843d 62fd 803d e053 0e3c 206e 973c
000002a0: 6015 1ebd 04c4 81bd 00e0 22ba ea70 ac3d
000002b0: 4479 91bd 8a2e 86bd a011 a9bb 00cf 743d
000002c0: a0b7 093d 38a3 613d 4869 d2bd 380d c1bd
000002d0: 700d a53d a827 59bd 4a86 ae3d 9c83 b93d
000002e0: 88c9 bb3d e207 d63d 8e06 a63d c08f c7bd
000002f0: f0e6 0bbc ce1d d73d a08e 1dbc b421 cbbd
00000300: 38df 003d cc8b 473d 241e 333d a0b6 75bc
00000310: 2cad 5d3d 40b2 f53b 529c c23d 0485 29bd
00000320: a4b4 623d 70c1 93bd 9c87 82bd 1a14 92bd
00000330: 285d d93c 68c6 4e3d c25f 94bd 30bd 4f3c
00000340: 860d 9cbd 085d 64bd d419 ad3d 800b e33b
00000350: 2e92 f1bd 18a8 babd 5e51 e63d 4e2b e0bd
00000360: 00b0 4abb a2fe a5bd 90fb 173d 50dc dc3c
00000370: 1060 77bc 9069 d8bc 10e5 513d 14d0 143d
00000380: 1814 a13c f461 223d 7ae7 d2bd 00df 22ba
00000390: 00a9 013a b0b1 cabd 002f 2b3a d23a d33d
000003a0: 00f0 f93c 54d4 e03d e06a 193c 189b 583d
000003b0: 6085 883b 887f bdbc 74f9 183d 082e f43d
000003c0: 60cc 8cbb a224 803d b0e0 ce3c 0025 ad3b
000003d0: e0e8 e6bc 5075 88bc 44c6 cabd 9a27 8c3d
000003e0: 6a8d fdbd 16b6 90bd c480 aa3d 8898 a43c
000003f0: 7ea8 91bd 689f b83d c6a8 aebd b076 7d3c
